…
To enable them in other operations, rebuild TensorFlow with the appropriate compiler flags.
2021-12-09 23:39:25.357247: I tensorflow/compiler/mlir/mlir_graph_optimization_pass.cc:185] None of the MLIR Optimization Passes are enabled (registered 2)
Model: "SAR_SHIP_DETECTION"
_________________________________________________________________
Layer (type)                 Output Shape              Param #   
=================================================================
input_1 (InputLayer)         [(None, 800, 800, 1)]     0         
_________________________________________________________________
conv2d (Conv2D)              (None, 800, 800, 6)       60        
_________________________________________________________________
batch_normalization (BatchNo (None, 800, 800, 6)       24        
_________________________________________________________________
max_pooling2d (MaxPooling2D) (None, 200, 200, 6)       0         
_________________________________________________________________
batch_normalization_1 (Batch (None, 200, 200, 6)       24        
_________________________________________________________________
conv2d_1 (Conv2D)            (None, 200, 200, 12)      660       
_________________________________________________________________
batch_normalization_2 (Batch (None, 200, 200, 12)      48        
_________________________________________________________________
max_pooling2d_1 (MaxPooling2 (None, 50, 50, 12)        0         
_________________________________________________________________
batch_normalization_3 (Batch (None, 50, 50, 12)        48        
_________________________________________________________________
conv2d_2 (Conv2D)            (None, 50, 50, 24)        2616      
_________________________________________________________________
batch_normalization_4 (Batch (None, 50, 50, 24)        96        
_________________________________________________________________
max_pooling2d_2 (MaxPooling2 (None, 25, 25, 24)        0         
_________________________________________________________________
batch_normalization_5 (Batch (None, 25, 25, 24)        96        
_________________________________________________________________
conv2d_3 (Conv2D)            (None, 25, 25, 48)        10416     
_________________________________________________________________
batch_normalization_6 (Batch (None, 25, 25, 48)        192       
_________________________________________________________________
max_pooling2d_3 (MaxPooling2 (None, 13, 13, 48)        0         
_________________________________________________________________
batch_normalization_7 (Batch (None, 13, 13, 48)        192       
_________________________________________________________________
flatten (Flatten)            (None, 8112)              0         
_________________________________________________________________
dense (Dense)                (None, 1024)              8307712   
_________________________________________________________________
batch_normalization_8 (Batch (None, 1024)              4096      
_________________________________________________________________
dense_1 (Dense)              (None, 512)               524800    
_________________________________________________________________
batch_normalization_9 (Batch (None, 512)               2048      
_________________________________________________________________
dense_2 (Dense)              (None, 128)               65664     
_________________________________________________________________
batch_normalization_10 (Batc (None, 128)               512       
_________________________________________________________________
dense_3 (Dense)              (None, 64)                8256      
_________________________________________________________________
batch_normalization_11 (Batc (None, 64)                256       
_________________________________________________________________
dense_4 (Dense)              (None, 32)                2080      
_________________________________________________________________
batch_normalization_12 (Batc (None, 32)                128       
_________________________________________________________________
dense_5 (Dense)              (None, 1)                 33        
_________________________________________________________________
tf.nn.relu (TFOpLambda)      (None, 1)                 0         
=================================================================
Total params: 8,930,057
Trainable params: 8,926,177
Non-trainable params: 3,880
_________________________________________________________________
None
Epoch 1/30
loss: 38.0528 - accuracy: 0.3302
Epoch 2/30
loss: 36.1746 - accuracy: 0.3530
Epoch 3/30
loss: 34.9975 - accuracy: 0.3794
Epoch 4/30
loss: 32.4216 - accuracy: 0.3949
…
